…
   "cell_type": "code",
   "execution_count": 40,
   "metadata": {
    "execution": {
     "iopub.execute_input": "2024-01-03T20:08:42.589447Z",
     "iopub.status.busy": "2024-01-03T20:08:42.589161Z",
     "iopub.status.idle": "2024-01-03T20:08:48.082213Z",
     "shell.execute_reply": "2024-01-03T20:08:48.081279Z",
     "shell.execute_reply.started": "2024-01-03T20:08:42.589422Z"
    }
   },
   "outputs": [
    {
     "data": {
      "text/plain": [
       "BertForSequenceClassification(\n",
       "  (bert): BertModel(\n",
       "    (embeddings): BertEmbeddings(\n",
       "      (word_embeddings): Embedding(100000, 768, padding_idx=0)\n",
       "      (position_embeddings): Embedding(512, 768)\n",
       "      (token_type_embeddings): Embedding(2, 768)\n",
       "      (LayerNorm): LayerNorm((768,), eps=1e-12, elementwise_affine=True)\n",
       "      (dropout): Dropout(p=0.1, inplace=False)\n",
       "    )\n",
       "    (encoder): BertEncoder(\n",
       "      (layer): ModuleList(\n",
       "        (0-11): 12 x BertLayer(\n",
       "          (attention): BertAttention(\n",
       "            (self): BertSelfAttention(\n",
       "              (query): Linear(in_features=768, out_features=768, bias=True)\n",
       "              (key): Linear(in_features=768, out_features=768, bias=True)\n",
       "              (value): Linear(in_features=768, out_features=768, bias=True)\n",
       "              (dropout): Dropout(p=0.1, inplace=False)\n",
       "            )\n",
       "            (output): BertSelfOutput(\n",
       "              (dense): Linear(in_features=768, out_features=768, bias=True)\n",
       "              (LayerNorm): LayerNorm((768,), eps=1e-12, elementwise_affine=True)\n",
       "              (dropout): Dropout(p=0.1, inplace=False)\n",
       "            )\n",
       "          )\n",
       "          (intermediate): BertIntermediate(\n",
       "            (dense): Linear(in_features=768, out_features=3072, bias=True)\n",
       "            (intermediate_act_fn): GELUActivation()\n",
       "          )\n",
       "          (output): BertOutput(\n",
       "            (dense): Linear(in_features=3072, out_features=768, bias=True)\n",
       "            (LayerNorm): LayerNorm((768,), eps=1e-12, elementwise_affine=True)\n",
       "            (dropout): Dropout(p=0.1, inplace=False)\n",
       "          )\n",
       "        )\n",
       "      )\n",
       "    )\n",
       "    (pooler): BertPooler(\n",
       "      (dense): Linear(in_features=768, out_features=768, bias=True)\n",
       "      (activation): Tanh()\n",
       "    )\n",
       "  )\n",
       "  (dropout): Dropout(p=0.1, inplace=False)\n",
       "  (classifier): Linear(in_features=768, out_features=5, bias=True)\n",
       ")"
      ]
     },
     "execution_count": 40,
     "metadata": {},
     "output_type": "execute_result"
    }
   ],
   "source": [
    "model1.to(device)"
   ]
  },
  {
   "cell_type": "code",
   "execution_count": 41,
   "metadata": {
    "execution": {
     "iopub.execute_input": "2024-01-03T20:08:48.083898Z",
     "iopub.status.busy": "2024-01-03T20:08:48.083511Z",
…
